…
ut_shape=(224, 224, 3)))\nmodel.add(keras.layers.MaxPool2D(pool_size=2))\nmodel.add(keras.layers.Conv2D(filters=64, kernel_size=3, strides=1,\n                              activation='relu'))\nmodel.add(keras.layers.MaxPool2D(pool_size=2))\nmodel.add(keras.layers.Flatten())\nmodel.add(keras.layers.Dense(units=len(names_tr), activation='softmax'))\nmodel.summary()\n\n_________________________________________________________________\nLayer (type)                 Output Shape              Param #   \n=================================================================\nconv2d (Conv2D)              (None, 110, 110, 64)      4864      \n_________________________________________________________________\nmax_pooling2d (MaxPooling2D) (None, 55, 55, 64)        0         \n_________________________________________________________________\nconv2d_1 (Conv2D)            (None, 53, 53, 64)        36928     \n_________________________________________________________________\nmax_pooling2d_1 (MaxPooling2 (None, 26, 26, 64)        0         \n_________________________________________________________________\nflatten (Flatten)            (None, 43264)             0         \n_________________________________________________________________\ndense (Dense)                (None, 6)                 259590    \n=================================================================\nTotal params: 301,382\nTrainable params: 301,382\nNon-trainable params: 0\n_________________________________________________________________\n\n\n\nmodel.compile(optimizer=keras.optimizers.Adam(), loss='sparse_categorical_crossentropy', metrics=['acc'])\n\n\nearly_stopping = keras.callbacks.EarlyStopping(monitor='val_loss', p
…
